
======================================================================
STAGE 1 - Build foundation model on ZN305K_smiles.csv
======================================================================
Device: mps
Loaded tokenized cache data/ZN305K_tokenized.npz: fx (304973, 165), fy (304973, 165)
VOCAB_SIZE: 100 | max_length: 166 | fx: (304973, 165) | fy: (304973, 165)
RESUME_FOUNDATION=1: loading data/GPT_ZN305_pytorch.pt to continue training.
model loaded with name: data/GPT_ZN305_pytorch.
GPT(
  (embedding): TokenAndPositionEmbedding(
    (token_emb): Embedding(100, 256)
    (pos_emb): Embedding(166, 256)
  )
  (blocks): ModuleList(
    (0-1): 2 x TransformerBlock(
      (q_proj): Linear(in_features=256, out_features=256, bias=True)
      (k_proj): Linear(in_features=256, out_features=256, bias=True)
      (v_proj): Linear(in_features=256, out_features=256, bias=True)
      (out_proj): Linear(in_features=256, out_features=256, bias=True)
      (dropout_1): Dropout(p=0.1, inplace=False)
      (ln_1): LayerNorm((256,), eps=1e-06, elementwise_affine=True, bias=True)
      (ffn_1): Linear(in_features=256, out_features=256, bias=True)
      (ffn_2): Linear(in_features=256, out_features=256, bias=True)
      (dropout_2): Dropout(p=0.1, inplace=False)
      (ln_2): LayerNorm((256,), eps=1e-06, elementwise_affine=True, bias=True)
    )
  )
  (head): Linear(in_features=256, out_features=100, bias=True)
)
Total parameters: 885,348 | Trainable: 885,348
  epoch 1/7 batch 50/596 loss 0.7370 (77.1s)
  epoch 1/7 batch 100/596 loss 0.7224 (154.0s)
  epoch 1/7 batch 150/596 loss 0.7177 (223.5s)
  epoch 1/7 batch 200/596 loss 0.7156 (293.4s)
  epoch 1/7 batch 250/596 loss 0.7138 (365.0s)
  epoch 1/7 batch 300/596 loss 0.7130 (434.5s)
  epoch 1/7 batch 350/596 loss 0.7124 (510.8s)
…
